…
packages\tensorflow\python\framework\op_def_library.py:263: colocate_with (from
tensorflow.python.framework.ops) is deprecated and will be removed in a future version.
Instructions for updating:
Colocations handled automatically by placer.
WARNING:tensorflow:From C:\Users\sozhan\Anaconda2\lib\site-
packages\keras\backend\tensorflow_backend.py:1264: calling reduce_prod_v1 (from
tensorflow.python.ops.math_ops) with keep_dims is deprecated and will be removed in a future
version.
Instructions for updating:
keep_dimsis deprecated, use keepdims instead
Layer (type) Output Shape Param #
=================================================================
conv2d_1 (Conv2D) (None, 62, 62, 128) 3584
max_pooling2d_1 (MaxPooling2 (None, 31, 31, 128) 0
conv2d_2 (Conv2D) (None, 29, 29, 64) 73792
 
max_pooling2d_2 (MaxPooling2 (None, 14, 14, 64) 0
conv2d_3 (Conv2D) (None, 12, 12, 64) 36928
max_pooling2d_3 (MaxPooling2 (None, 6, 6, 64) 0
flatten_1 (Flatten) (None, 2304) 0
dense_1 (Dense) (None, 32) 73760
dense_2 (Dense) (None, 4) 132
=================================================================
Total params: 188,196
Trainable params: 188,196
Non-trainable params: 0
B2. Compile the model with SGD(Stochastic Gradient Descent) and train it with 10 epochs.
In [4]:
sgd=SGD(lr=0.01,decay=1e-6, momentum=0.9, nesterov=True)
# We are going to use accuracy metrics and cross entropy loss as performance parameters
model.compile(sgd, loss='categorical_crossentropy', metrics=['acc'])
…
new_model.add(Conv2D(64, kernel_size=(3,3), activation='relu'))
new_model.add(MaxPooling2D(pool_size=(2,2)))
new_model.add(Conv2D(64, kernel_size=(3,3), activation='relu'))
new_model.add(MaxPooling2D(pool_size=(2,2)))
new_model.add(Conv2D(32, kernel_size=(3,3), activation='relu'))
new_model.add(Conv2D(32, kernel_size=(3,3), activation='relu'))
new_model.add(layers.Flatten())
new_model.add(layers.Dense(32, activation='relu'))
new_model.add(layers.Dense(4, activation='softmax'))
new_model.summary()
Layer (type) Output Shape Param #
=================================================================
conv2d_4 (Conv2D) (None, 62, 62, 128) 3584
 
max_pooling2d_4 (MaxPooling2 (None, 31, 31, 128) 0
conv2d_5 (Conv2D) (None, 29, 29, 64) 73792
max_pooling2d_5 (MaxPooling2 (None, 14, 14, 64) 0
conv2d_6 (Conv2D) (None, 12, 12, 64) 36928
max_pooling2d_6 (MaxPooling2 (None, 6, 6, 64) 0
conv2d_7 (Conv2D) (None, 4, 4, 32) 18464
conv2d_8 (Conv2D) (None, 2, 2, 32) 9248
flatten_2 (Flatten) (None, 128) 0
dense_3 (Dense) (None, 32) 4128
dense_4 (Dense) (None, 4) 132
=================================================================
Total params: 146,276
Trainable params: 146,276
Non-trainable params: 0
Training the model after 5rd layer
In[8]
forlayerinnew_model.layers[:6]:
layer.trainable=False
forlayerinnew_model.layers:
print(layer, layer.trainable)
new_model.summary()
<keras.layers.convolutional.Conv2D object at 0x0000005BA10D8F98> False
<keras.layers.pooling.MaxPooling2D object at 0x0000005BA2247C18> False
…
